src/best_model.pth (torch, 17254 bytes, 5 tensors)

fc1.weight f4 [64, 23]
0	0xbec68a51	-0.38777402
1	0xbe6d3a10	-0.2316668
2	0xbe81706e	-0.2528109
3	0x3e7c0c20	0.24614
4	0x3dea192e	0.11430584
5	0xbe1ed036	-0.15509114
6	0xbf0836df	-0.53208727
7	0xbe040a4d	-0.12894554
8	0xbe59d9e4	-0.21274525
9	0xbed32763	-0.41240987
10	0x3e5419fe	0.2071304
11	0xbf26670f	-0.65001005
12	0xbd9996cb	-0.074994646
13	0xbe209ca0	-0.15684748
14	0xbd699697	-0.05702838
15	0x3e900e53	0.2813593
16	0xbcc1b9f1	-0.023648234
17	0x3cda79f8	0.026669487
18	0xbec453d3	-0.38345203
19	0x3ec32a20	0.38118076
20	0xbe2c1a0a	-0.16806808
21	0xbe080f5b	-0.13287108
22	0xbe575118	-0.21027029
23	0x3d1e1e94	0.03860338
24	0x3e62a2be	0.22132394
25	0x3e1ded72	0.1542261
26	0x3e30bc04	0.17259222
27	0x3e909133	0.28235778
28	0xbdfec6e3	-0.124402784
29	0x3dd31c23	0.10308101
30	0xbecc60ee	-0.399177
31	0x3dd81277	0.10550397
32	0xbe11bb10	-0.14231515
33	0xbdc9c559	-0.09852094
34	0xbe043045	-0.12909038
35	0x3d205141	0.03913999
36	0x3e11643f	0.14198397
37	0x3e61adc0	0.22038937
38	0x3da54096	0.080689594
39	0x3dea8f9b	0.11453172
40	0x3ddc3e91	0.10754121
41	0x3e4abce0	0.19798613
42	0x3e1cad14	0.15300399
43	0xbe5636d4	-0.20919353
44	0x3d8ab794	0.06773296
45	0x3dff64ff	0.12470435
46	0x3dc3165a	0.095257476
47	0xbdcbfbf9	-0.09960169
48	0x3d7bdd57	0.061490383
49	0xbe2f00e2	-0.1709018
50	0xbd6d0460	-0.0578655
51	0x3d88d6fc	0.0668163
52	0x3ec844ad	0.39114895
53	0x3ce997c0	0.028514743
54	0x3daabb5a	0.08336516
55	0xbe81b487	-0.25333044
56	0x3db50129	0.08838112
57	0x3e6cacb6	0.23112759
58	0xbdb0c393	-0.08631053
59	0x3e3a28cc	0.18179625
60	0x3e02962a	0.12752596
61	0xbcbea19f	-0.023270426
62	0x3cd11a0b	0.025525114
63	0x3da16f47	0.078825526
64	0x3db89e38	0.09014553
65	0x3d9551ab	0.072909676
66	0xbe3234be	-0.17402932
67	0x3d4fb254	0.050707176
68	0x3e702b8b	0.2345411
69	0xbe8f7cce	-0.28024906
70	0xbdad7037	-0.08468669
71	0x3d2e266f	0.042517122
72	0xbe36ecea	-0.17863813
73	0x3c12af37	0.008952907
74	0xbd8a1c24	-0.06743649
75	0x3e811302	0.25209814
76	0xbe1d2308	-0.15345395
77	0x3d845da4	0.06463173
78	0xbe7366df	-0.23769711
79	0x3d364b29	0.044505272
80	0xbd05e900	-0.03269291
81	0x3e1a2429	0.15052857
82	0x3e0c3815	0.13693269
83	0x3e1f3275	0.15546592
84	0x3c91cebf	0.01779878
85	0x3cf3473f	0.029697059
86	0x3df7e7f4	0.121047884
87	0x3d55ee71	0.05222935
88	0xbcc25298	-0.023721024
89	0xbe142690	-0.14467835
90	0x3de1b13a	0.110201314
91	0x3dd7dcdd	0.10540173
92	0xbd7a7913	-0.06115062
93	0x3e149d91	0.14513232
94	0x3e5ec054	0.21753055
95	0xbe29d7ad	-0.1658618
96	0x3e86cb2f	0.26326892
97	0x3ca66c58	0.020315334
98	0x3df59c25	0.11992673
99	0xbc55aae4	-0.013041232
100	0x3cd0fedf	0.025512157
101	0xbed92b5d	-0.42415896
102	0x3c73b647	0.014875001
103	0x3aab8724	0.001308654
104	0x3e8e979a	0.27850038
105	0x3e888b24	0.26668656
106	0xbe3059c2	-0.1722174
107	0xbde8440d	-0.11341105
108	0x3e393028	0.18084776
109	0x3dec1965	0.11528281
110	0x3e9c13b8	0.30483794
111	0xbe066a97	-0.13126598
112	0xbca93701	-0.02065611
113	0x3d859eb6	0.06524412
114	0xb9695a5c	-0.00022254273
115	0xbe1ad641	-0.15120794
116	0xbde0bb56	-0.109732315
117	0x3e5b6932	0.21426848
118	0x3df8fc08	0.12157446
119	0xbe05a861	-0.13052513
120	0x3c1d118b	0.009586702
121	0xbe304926	-0.17215404
122	0xbdcdb3d2	-0.10044064
123	0x3d262db1	0.04057092
124	0xbd19815a	-0.037476875
125	0x3de18f75	0.110136904
126	0x3ed7b07c	0.42126834
127	0x3dd511c3	0.104037784
128	0x3f0c8216	0.54885995
129	0xbec125d4	-0.37724173
130	0xbe62707e	-0.22113225
131	0x3e69f03e	0.22845551
132	0xbbcd5535	-0.006266261
133	0x3e30b852	0.17257813
134	0xbdfe93ea	-0.12430556
135	0x3d99ac1c	0.075035304
136	0xbe9720f7	-0.29517338
137	0xbea9dc52	-0.33175904
138	0x3e3858af	0.1800258
139	0x3e089768	0.13339007
140	0xbe270a75	-0.16312583
141	0x3e4024d0	0.18764043
142	0x3d9c3a8f	0.07628357
143	0xbd349c55	-0.044094402
144	0xbe555848	-0.20834458
145	0x3e8bb398	0.27285457
146	0xbb97b8c1	-0.0046301787
147	0x3e394af2	0.18094996
148	0x3d797f37	0.060912337
149	0xbdfd630d	-0.12372408
150	0xbd114c11	-0.035472933
151	0x3d4f89cd	0.050668526
152	0x3e3caac1	0.18424512
153	0x3cb76a3d	0.022389526
154	0xbd30b4cc	-0.04314117
155	0xbdfd9206	-0.123813674
156	0xbe93aaa0	-0.28841114
157	0x3e85ecf9	0.26157358
158	0x3dfed821	0.12443567
159	0xbdfe2efa	-0.12411304
160	0xbe0a0116	-0.13476977
161	0x3e193840	0.14962864
162	0xbd5aac15	-0.053386766
163	0xbdfec480	-0.12439823
164	0xbe358c7a	-0.17729369
165	0x3dcf7055	0.101288475
166	0x3e5a22ea	0.21302381
167	0xbd77c7f6	-0.060493432
168	0x3e76ba3a	0.24094477
169	0xbc1e372b	-0.009656708
170	0x3e5b7655	0.21431859
171	0x3e18367b	0.14864533
172	0x3d8274eb	0.063699566
173	0xbaa6143a	-0.0012670823
174	0xbdeb1c67	-0.11480027
175	0x3c95c99a	0.018284608
176	0xbcefaaa3	-0.02925617
177	0xbd6a96c7	-0.0572727
178	0x3db5e849	0.088821955
179	0x3cd3c15f	0.025849042
180	0xbde2bef5	-0.110715784
181	0x3de102a5	0.109868325
182	0xbe2952de	-0.16535518
183	0xbdc0927c	-0.0940294
184	0x3e2d5cbd	0.16929908
185	0x3cde8be8	0.027166322
186	0x3e352bcf	0.17692493
187	0x3cb528e9	0.022114234
188	0x3dc4313e	0.09579705
189	0x3e0f60c7	0.14001761
190	0xbd3c77c8	-0.04601267
191	0xbdcea389	-0.100897856
192	0x3e2973d8	0.16548097
193	0xbeaa2c7d	-0.33237067
194	0x3de13b82	0.10997678
195	0x3da51430	0.08060491
196	0xbe105933	-0.14096527
197	0xbece402a	-0.40283328
198	0x3da4a1cb	0.08038672
199	0xbe36dec6	-0.17858419
200	0x3cc41abf	0.023938535
201	0xbda4e94e	-0.08052312
202	0x3e69d4e6	0.2283512
203	0x3df2762c	0.11838946
204	0xbc4b0fa9	-0.01239387
205	0x3e54cd3c	0.20781416
206	0xbe78bc51	-0.24290587
207	0x3e1a28d8	0.15054643
208	0xbe4a2d28	-0.19743788
209	0x3dd7d328	0.10538322
210	0xbe37827d	-0.17920871
211	0x3d6d99b0	0.058007896
212	0xbd6bf6d3	-0.057608437
213	0x3e61ecbd	0.22062965
214	0x3e1852d7	0.14875351
215	0x3db80974	0.08986178
216	0xbe30370f	-0.17208503
217	0xbd15a290	-0.036531985
218	0x3e96fd59	0.29490164
219	0x3e931278	0.28725028
220	0x3ce57c59	0.028013395
221	0x3cfe45c0	0.031039119
222	0xbdbbd8df	-0.09172224
223	0x3d744138	0.05963251
224	0x3e7cee3c	0.24700254
225	0x3e73fafa	0.23826209
226	0x3e18eb08	0.14933407
227	0xbe43c6c6	-0.19118795
228	0x3daee37d	0.08539484
229	0x3ddf70d3	0.109101914
230	0x3e597807	0.21237193
231	0xbe358f39	-0.17730416
232	0xbc1fd425	-0.009755169
233	0x3dee408f	0.11633407
234	0xbd5a4526	-0.0532886
235	0x3d89efe4	0.06735209
236	0xbc91fe66	-0.017821502
237	0x3e655938	0.22397316
238	0xbc86ebe9	-0.016469913
239	0x3eb5b583	0.35490045
240	0x3d432fe7	0.047653105
241	0xbe8316d1	-0.25603345
242	0xbe99aa8a	-0.30012923
243	0xbd8f9977	-0.07011693
244	0x3cd740cc	0.026276015
245	0x3df9f506	0.12204938
246	0x3e6e7453	0.23286562
247	0xbd6e574d	-0.058188725
248	0xbe9231d8	-0.28553653
249	0xbd9dc020	-0.077026606
250	0x3e33bc88	0.17552388
251	0x3abe9838	0.0014541214
252	0x3dbf99eb	0.093555294
253	0x3ee6cd8b	0.45078692
254	0xbeee7821	-0.46576026
255	0xbcc70a61	-0.024296941

fc1.bias f4 [64]
0	0x3e465af0	0.19370627
1	0x3c681a4e	0.014166428
2	0xbdbf8063	-0.0935066
3	0x3e450850	0.19241452
4	0xbde532c5	-0.11191324
5	0xbe1a1e7e	-0.15050694
6	0xbc6e16d4	-0.01453181
7	0x3e393727	0.18087445
8	0x3ab995fa	0.0014159076
9	0x3d9e58cf	0.07731783
10	0x3e16539f	0.14680336
11	0xbd83edf8	-0.06441873
12	0x3e1f03d1	0.155288
13	0x3e167692	0.14693668
14	0x3e272c68	0.16325533
15	0x3d847d6d	0.064692356
16	0x3cd000b5	0.025390962
17	0xbdddf53a	-0.10837789
18	0x3e0eb838	0.13937461
19	0xbbca0672	-0.006165319
20	0xbdef6dfb	-0.11690899
21	0xbd924990	-0.07142937
22	0x3d8487ee	0.06471239
23	0x3a6c32de	0.00090102653
24	0x3e645fde	0.22302195
25	0x3dcf6511	0.10126699
26	0xbd2284bc	-0.039677367
27	0x3e0c0558	0.13673913
28	0x3e19c84a	0.1501781
29	0x3e1001d9	0.14063205
30	0xbe305c3b	-0.17222683
31	0xbe4d69fe	-0.20059964
32	0x3d75c984	0.060006633
33	0xbc8a4a07	-0.016881002
34	0x3db06a0c	0.08613977
35	0xbd467eeb	-0.048460882
36	0x3df2ffd9	0.11865205
37	0x3d947bd7	0.07250183
38	0x3d61d283	0.0551324
39	0x3de5ecbe	0.112267956
40	0x3e3fc957	0.18729149
41	0x3c3f75ea	0.011685828
42	0x3d1650ac	0.03669803
43	0x3ca040e6	0.019562196
44	0xbadc2db9	-0.0016798294
45	0x3e3ead60	0.18620825
46	0x3e312469	0.17299046
47	0xbe18229e	-0.14856955
48	0x3dc70adb	0.097188674
49	0x3d2d5d31	0.042325202
50	0x3b6e3e95	0.003635322
51	0xbe527ac8	-0.2055465
52	0x3e74a79f	0.23892067
53	0x3df7dcfa	0.12102695
54	0x3c82119f	0.015877543
55	0xbe2ab81f	-0.16671799
56	0x3c81cb1f	0.015843926
57	0xbe2b82b7	-0.16749083
58	0x3e589b3e	0.2115297
59	0xba8d5415	-0.0010782505
60	0xbba36203	-0.004986049
61	0xbdff8943	-0.124773525
62	0xbde87f27	-0.113523774
63	0x3da8e964	0.08247641

fc2.weight f4 [32, 64]
0	0xbec1bd63	-0.37839803
1	0x3e5355b8	0.20638168
2	0xbb3d6deb	-0.0028904628
3	0xbcf3a7cc	-0.029743098
4	0x3d22a459	0.039707515
5	0x3d4ed042	0.05049158
6	0x3c1326ae	0.00898139
7	0x3da88cab	0.08229955
8	0xbc800119	-0.015625523
9	0x3e31c22b	0.17359225
10	0xbdeb154e	-0.11478673
11	0x3f9bdad3	1.2176155
12	0xbe99cb2d	-0.30037823
13	0x3e16fe01	0.14745332
14	0x3f7c212a	0.98488104
15	0xbe8033ca	-0.25039512
16	0x3d844538	0.06458515
17	0x3dca953f	0.09891748
18	0x3f03a498	0.51423025
19	0x3e2109d5	0.15726407
20	0x3e3235aa	0.17403284
21	0xbd519c6b	-0.051174562
22	0x3e131452	0.1436322
23	0x3e9f0b89	0.31063488
24	0x3e083482	0.1330128
25	0x3e325975	0.17416938
26	0xbe462b28	-0.193524
27	0x3d29d064	0.041458502
28	0xbc51611c	-0.0127795
29	0x3dd3f1e5	0.10348872
30	0xbd4c9f71	-0.049956743
31	0xbf1a299b	-0.60219735
32	0x3ec33987	0.38129827
33	0xbd2f6c00	-0.042827606
34	0x3dbd52e1	0.092443235
35	0x3de2e48d	0.11078749
36	0xbe12ae80	-0.14324379
37	0xbd2c009f	-0.04199278
38	0x3d94407e	0.072388634
39	0x3de92dba	0.11385675
40	0x3ce85d74	0.028364874
41	0x394965d4	0.00019206788
42	0x3d03d4a5	0.032185216
43	0x3e71a871	0.23599412
44	0x3ea6af60	0.32555676
45	0x3ea2e998	0.31818843
46	0xba3a5217	-0.0007107569
47	0x3e9b9f1b	0.30394825
48	0x3e541986	0.20712861
49	0xbcb8c917	-0.022556825
50	0x3ef3b291	0.47597173
51	0x3e9d5e83	0.3073617
52	0xbeb00e2c	-0.34385812
53	0x3e1c20fc	0.15246958
54	0x3e5828ee	0.21109363
55	0xbd5c8bae	-0.053844146
56	0x3d909207	0.070591025
57	0x3f1faf42	0.623768
58	0xbc63bc5d	-0.01389989
59	0xbe3d2e6c	-0.1847474
60	0x3d9b781e	0.0759127
61	0x3f5e615e	0.8686732
62	0x3e01018d	0.12598248
63	0xbde8aff4	-0.113616854
64	0x3ebfde58	0.37474322
65	0xbe3cbd6f	-0.18431638
66	0x3d9db522	0.07700564
67	0xbdfb20a1	-0.12262083
68	0x3d2bf6a0	0.041983247
69	0x3d093b87	0.033504035
70	0x3debac52	0.11507477
71	0x3daf8009	0.08569343
72	0xbc3fa682	-0.011697413
73	0x3df7a96e	0.12092863
74	0x3ce501d8	0.02795498
75	0xbfae699e	-1.3625982
76	0x3eab893a	0.33503133
77	0x3e049af6	0.12949738
78	0xbf405ec7	-0.7514462
79	0x3ef57260	0.47938824
80	0x3d197cfd	0.037472714
81	0xbdd4b568	-0.10386163
82	0xbf1a3b3c	-0.60246634
83	0xbcd403c1	-0.025880696
84	0xbd5b38b9	-0.05352089
85	0x3de81f0a	0.11334045
86	0x3cca80be	0.024719592
87	0xbd7cd4d1	-0.061726395
88	0x3d1ab64e	0.037771516
89	0xbd5b7a5b	-0.053583484
90	0x3ecd54f9	0.40103891
91	0x3da82e6b	0.082119785
92	0xbe0c6664	-0.13710934
93	0x3e31fdfd	0.17382045
94	0x3d941bb4	0.072318465
95	0x3f3621f5	0.71145564
96	0xbed91fff	-0.42407224
97	0x3e205715	0.15658219
98	0xbcc13c78	-0.023588404
99	0x3d92e5c8	0.071727335
100	0x3ddc1310	0.107458234
101	0xbd4081ff	-0.046998974
102	0x3da6a2b6	0.081365034
103	0x3c20a482	0.009804847
104	0xbd81864f	-0.063244455
105	0x3d3655ad	0.0445153
106	0x3e529e5e	0.20568225
107	0xbe5caf41	-0.21551229
108	0xbf1ea8be	-0.6197623
109	0xbefbb8af	-0.4916434
110	0x3e189f51	0.14904524
111	0xbe7ea496	-0.24867472
112	0xbc668c80	-0.014071584
113	0xbd6a66b9	-0.05722687
114	0xbf07b870	-0.53015804
115	0xbf003cab	-0.5009257
116	0x3e830083	0.25586328
117	0xbe1bb14e	-0.15204355
118	0xbe400e2c	-0.18755406
119	0xbc873c9d	-0.016508395
120	0xbd1dab7c	-0.03849362
121	0xbed57f4c	-0.41698682
122	0xbe10dc56	-0.14146551
123	0x3e3ffb94	0.18748313
124	0xbdb3e0da	-0.087831214
125	0xbf8f59f9	-1.1199332
126	0xbd690659	-0.05689082
127	0x3e824772	0.25445133
128	0x3e9f390a	0.31098205
129	0x3d4db306	0.05021956
130	0xbe108966	-0.14114913
131	0xbe1d2705	-0.15346916
132	0xbe4e3ef7	-0.20141207
133	0xbebeb965	-0.3725082
134	0x3db14c15	0.086570896
135	0x3e2d92cd	0.16950531
136	0x3d16cfa3	0.03681911
137	0xbe1bfc39	-0.15232934
138	0x3e2a3f5c	0.16625732
139	0xbf5c42a2	-0.86039174
140	0x3dd1dbdf	0.10247015
141	0x3da572ff	0.080785744
142	0xbe916b3d	-0.2840213
143	0x3f05b4e6	0.52229154
144	0xbd9c1e34	-0.07622948
145	0xbea28295	-0.3174025
146	0xbf2d4d3c	-0.67695975
147	0x3db07953	0.08616891
148	0x3e99eeb4	0.3006493
149	0xbadd5424	-0.0016886038
150	0x3e0f14f8	0.13972843
151	0xbe8c2196	-0.27369374
152	0xbd6a9454	-0.057270363
153	0xbc7afe98	-0.015319489
154	0x3ebcf78e	0.3690762
155	0xbcddb34f	-0.02706304
156	0xbdbec44b	-0.09314784
157	0xbca3bda9	-0.019987898
158	0xbe78efe4	-0.24310261
159	0x3f6f1046	0.93384206
160	0xbf256b4b	-0.6461684
161	0xbde8227e	-0.11334704
162	0x3e4d82ee	0.20069477
163	0xbe2b3456	-0.16719183
164	0x3e83e4a2	0.2576037
165	0x3e0c1feb	0.1368405
166	0xbdf0ef7b	-0.11764427
167	0xbd77f353	-0.060534786
168	0xbe1ad56c	-0.15120476
169	0x3b1dbff4	0.0024070712
170	0x3d9393c8	0.072059214
171	0xbdba2255	-0.090885796
172	0xbed8e1cb	-0.42359766
173	0xbf3aaf5c	-0.7292383
174	0xbd0844b9	-0.033268664
175	0xbe73c840	-0.23806858
176	0x3e0bbeb0	0.1364696
177	0xbe9dafdf	-0.30798241
178	0xbf006ed0	-0.50169086
179	0xbe8acf11	-0.27111104
180	0x3eb35248	0.35023713
181	0xbdf82391	-0.12116159
182	0xbd581545	-0.05275466
183	0xbd945665	-0.07243041
184	0xbe28bdec	-0.164787
185	0xbe808ef9	-0.2510908
186	0xbebaaf3b	-0.36461815
187	0x3e83162f	0.25602862
188	0x3dcf5bef	0.10124957
189	0xbf7304f4	-0.9492943
190	0xbebe5a8b	-0.37178454
191	0x3e547fa2	0.20751813
192	0xbd973d3b	-0.07384726
193	0xbe1bafb7	-0.15203749
194	0xbe0841df	-0.13306378
195	0x3d2bff12	0.0419913
196	0x3ce63fd1	0.028106602
197	0xbe306700	-0.17226791
198	0x3d85349b	0.06504174
199	0xbda5855b	-0.08082076
200	0xbd34b750	-0.044120133
201	0xbcdc8637	-0.026919467
202	0xbd8a6414	-0.0675737
203	0xbd8c0161	-0.068362005
204	0x3be67bba	0.0070337923
205	0xbde953fd	-0.113929726
206	0x3d4ef43d	0.050525893
207	0xbd915599	-0.070964046
208	0xbba18d5b	-0.004930181
209	0x3c03b84c	0.008039545
210	0xbe18738b	-0.14887826
211	0xb9c266e8	-0.00037079235
212	0xbe1f3d2a	-0.15550676
213	0x3dc985fb	0.09840008
214	0xbe0f11ae	-0.13971588
215	0xbd60a7d0	-0.05484754
216	0x3d6be0ab	0.057587307
217	0x3d64a0e0	0.055817485
218	0xbdfe564d	-0.12418804
219	0x3dbfbfe3	0.09362771
220	0xbe2c4c2a	-0.1682593
221	0x3d5df9fa	0.054193474
222	0x3d9ebc78	0.07750791
223	0x3d6b485c	0.057442054
224	0xbe094f9b	-0.13409273
225	0xbd9f7c56	-0.07787387
226	0xbdd433b0	-0.10361421
227	0xbd1bba22	-0.038019307
228	0x3d79172e	0.06081312
229	0xbd71e808	-0.059059173
230	0xbc534d95	-0.012896915
231	0xbe03caeb	-0.12870376
232	0xbde49660	-0.11161494
233	0xbb54e701	-0.0032486322
234	0xbe1448e1	-0.14480926
235	0xbdb74071	-0.08947838
236	0x3d33f88c	0.043938205
237	0xbe3d15a1	-0.18465282
238	0xbe0a9369	-0.13532795
239	0xbe11a078	-0.1422137
240	0x3cc22dc7	0.023703469
241	0xbe002fd4	-0.12518245
242	0xbe0193d3	-0.12654047
243	0xbdf37077	-0.11886685
244	0xbd61b922	-0.055108197
245	0xbda9d895	-0.08293263
246	0xbd5e37d8	-0.054252476
247	0x3dbf92a5	0.09354142
248	0xbdba6b42	-0.09102489
249	0xbdccee64	-0.10006407
250	0xbdeba467	-0.11505967
251	0x3d0c799b	0.03429566
252	0xbdc277ba	-0.09495492
253	0x3d5c40af	0.053772625
254	0xbd76f12c	-0.060288593
255	0x3d466232	0.04843349

fc2.bias f4 [32]
0	0xbda01e1b	-0.07818242
1	0x3c8a8a7e	0.016911741
2	0x3d3703f2	0.044681497
3	0x3c88f62b	0.016718945
4	0xbdfaa4be	-0.12238453
5	0xbd60a834	-0.05484791
6	0xbd25caf5	-0.040476758
7	0x3db35de6	0.08758144
8	0x3dd24897	0.10267752
9	0x3e4ecfcf	0.2019646
10	0xbd86d2f6	-0.06583206
11	0x3c383343	0.0112426905
12	0x3bfc1915	0.0076934197
13	0x3d929772	0.07157792
14	0x3d19185d	0.03737675
15	0x3d8e78d0	0.06956637
16	0x3d3f2e41	0.04667497
17	0x3df51ea1	0.119687326
18	0x3d42675a	0.047461845
19	0xbd469abd	-0.048487414
20	0xbdb2b0bd	-0.087251164
21	0x3dde5bff	0.108573906
22	0x3d5385fb	0.051641446
23	0x3e0773eb	0.13227813
24	0xbc506bf3	-0.01272105
25	0x3c9821bf	0.018570779
26	0xbdb78920	-0.089617014
27	0xbdac546e	-0.08414541
28	0x3d06f9d5	0.032953102
29	0x3dad043f	0.084480755
30	0x3d7e18ee	0.062035494
31	0x3da5d88d	0.080979444

fc3.weight f4 [1, 32]
0	0xbeba2781	-0.36358264
1	0x3ed8f828	0.42376828
2	0x3f2ff911	0.6873942
3	0x3cbcd49c	0.023050599
4	0xbe48f7e1	-0.19625808
5	0xbe6449d6	-0.22293791
6	0x3e15a4d5	0.1461366
7	0xbe9c89d8	-0.30573916
8	0xbee6a09c	-0.4504441
9	0x3f2210dc	0.63306975
10	0x3d812c9e	0.06307338
11	0xbe2bb7a3	-0.1676927
12	0x3dfd8436	0.12378733
13	0xbe73832b	-0.23780505
14	0x3f61a423	0.8814108
15	0xbe920983	-0.28522882
16	0xbeb6009f	-0.3554735
17	0x3ed85555	0.42252603
18	0xbeb875aa	-0.3602727
19	0xb96cb26e	-0.00022573184
20	0xbe980f8e	-0.29699367
21	0xbeafa252	-0.34303528
22	0x3dd08bfc	0.1018295
23	0x3f2783df	0.65435594
24	0x3dd9406b	0.1060799
25	0xbe663459	-0.22480907
26	0x3dccb0f9	0.09994692
27	0x3defe17a	0.11712928
28	0xbeb30576	-0.34965104
29	0x3eef2930	0.4671111
30	0xbe9c2904	-0.30500042
31	0xbed8d606	-0.42350787
